…
2024-03-16 19:26:42,583 :: root :: INFO     :: Loaded config from: configs/trajectory_tracking/config-track.yaml
2024-03-16 19:26:42,586 :: root :: INFO     :: Saved config at: work_dir/track/checkpoint/config.yaml
2024-03-16 19:26:42,586 :: root :: INFO     :: Config file backed up at: 00-config-track-base.yaml
2024-03-16 19:26:42,587 :: root :: INFO     :: Config file backed up at: 01-config-track.yaml
2024-03-16 19:26:43,273 :: root :: INFO     :: Built algorithm.policy: TD3Policy(
  (actor): Actor(
    (features_extractor): FlattenExtractor(
      (flatten): Flatten(start_dim=1, end_dim=-1)
    )
    (mu): Sequential(
      (0): Linear(in_features=39, out_features=256, bias=True)
      (1): ReLU()
      (2): Linear(in_features=256, out_features=256, bias=True)
      (3): ReLU()
      (4): Linear(in_features=256, out_features=128, bias=True)
      (5): ReLU()
      (6): Linear(in_features=128, out_features=128, bias=True)
      (7): ReLU()
      (8): Linear(in_features=128, out_features=64, bias=True)
      (9): ReLU()
      (10): Linear(in_features=64, out_features=64, bias=True)
      (11): ReLU()
      (12): Linear(in_features=64, out_features=2, bias=True)
      (13): Tanh()
    )
  )
  (actor_target): Actor(
    (features_extractor): FlattenExtractor(
      (flatten): Flatten(start_dim=1, end_dim=-1)
    )
    (mu): Sequential(
      (0): Linear(in_features=39, out_features=256, bias=True)
      (1): ReLU()
      (2): Linear(in_features=256, out_features=256, bias=True)
      (3): ReLU()
      (4): Linear(in_features=256, out_features=128, bias=True)
      (5): ReLU()
      (6): Linear(in_features=128, out_features=128, bias=True)
      (7): ReLU()
      (8): Linear(in_features=128, out_features=64, bias=True)
      (9): ReLU()
      (10): Linear(in_features=64, out_features=64, bias=True)
      (11): ReLU()
      (12): Linear(in_features=64, out_features=2, bias=True)
      (13): Tanh()
    )
  )
  (critic): ContinuousCritic(
    (features_extractor): FlattenExtractor(
      (flatten): Flatten(start_dim=1, end_dim=-1)
    )
    (qf0): Sequential(
      (0): Linear(in_features=41, out_features=1024, bias=True)
      (1): ReLU()
      (2): Linear(in_features=1024, out_features=512, bias=True)
      (3): ReLU()
      (4): Linear(in_features=512, out_features=256, bias=True)
      (5): ReLU()
      (6): Linear(in_features=256, out_features=128, bias=True)
      (7): ReLU()
      (8): Linear(in_features=128, out_features=1, bias=True)
    )
    (qf1): Sequential(
      (0): Linear(in_features=41, out_features=1024, bias=True)
      (1): ReLU()
      (2): Linear(in_features=1024, out_features=512, bias=True)
      (3): ReLU()
      (4): Linear(in_features=512, out_features=256, bias=True)
      (5): ReLU()
      (6): Linear(in_features=256, out_features=128, bias=True)
      (7): ReLU()
      (8): Linear(in_features=128, out_features=1, bias=True)
    )
  )
  (critic_target): ContinuousCritic(
    (features_extractor): FlattenExtractor(
      (flatten): Flatten(start_dim=1, end_dim=-1)
    )
    (qf0): Sequential(
      (0): Linear(in_features=41, out_features=1024, bias=True)
      (1): ReLU()
      (2): Linear(in_features=1024, out_features=512, bias=True)
      (3): ReLU()
      (4): Linear(in_features=512, out_features=256, bias=True)
      (5): ReLU()
      (6): Linear(in_features=256, out_features=128, bias=True)
      (7): ReLU()
      (8): Linear(in_features=128, out_features=1, bias=True)
    )
    (qf1): Sequential(
      (0): Linear(in_features=41, out_features=1024, bias=True)
      (1): ReLU()
      (2): Linear(in_features=1024, out_features=512, bias=True)
      (3): ReLU()
      (4): Linear(in_features=512, out_features=256, bias=True)
      (5): ReLU()
      (6): Linear(in_features=256, out_features=128, bias=True)
      (7): ReLU()
      (8): Linear(in_features=128, out_features=1, bias=True)
    )
  )
)
2024-03-16 22:12:05,251 :: root :: INFO     :: SB3 Algorithm Policy saved at: work_dir/track/checkpoint/checkpoint.zip
2024-03-16 22:13:24,239 :: root :: INFO     :: Environment data saved to work_dir/track/checkpoint/env_data.bin
2024-03-16 22:13:24,754 :: root :: INFO     :: scenario #0
2024-03-16 22:13:24,820 :: root :: INFO     :: scenario #1
…
