…
2024-03-16 20:27:45,137 :: root :: INFO     :: Saved config at: work_dir/track-test/checkpoint/config.yaml
2024-03-16 20:27:45,138 :: root :: INFO     :: Config file backed up at: 00-config-track-base.yaml
2024-03-16 20:27:45,138 :: root :: INFO     :: Config file backed up at: 01-config-track-tiny.yaml
2024-03-16 20:27:45,139 :: root :: INFO     :: Config file backed up at: 02-config-track-test-sample.yaml
2024-03-16 20:27:46,645 :: root :: INFO     :: Built algorithm.policy: TD3Policy(
  (actor): Actor(
    (features_extractor): FlattenExtractor(
      (flatten): Flatten(start_dim=1, end_dim=-1)
    )
    (mu): Sequential(
      (0): Linear(in_features=39, out_features=128, bias=True)
      (1): ReLU()
      (2): Linear(in_features=128, out_features=32, bias=True)
      (3): ReLU()
      (4): Linear(in_features=32, out_features=2, bias=True)
      (5): Tanh()
    )
  )
  (actor_target): Actor(
    (features_extractor): FlattenExtractor(
      (flatten): Flatten(start_dim=1, end_dim=-1)
    )
    (mu): Sequential(
      (0): Linear(in_features=39, out_features=128, bias=True)
      (1): ReLU()
      (2): Linear(in_features=128, out_features=32, bias=True)
      (3): ReLU()
      (4): Linear(in_features=32, out_features=2, bias=True)
      (5): Tanh()
    )
  )
  (critic): ContinuousCritic(
    (features_extractor): FlattenExtractor(
      (flatten): Flatten(start_dim=1, end_dim=-1)
    )
    (qf0): Sequential(
      (0): Linear(in_features=41, out_features=1024, bias=True)
      (1): ReLU()
      (2): Linear(in_features=1024, out_features=512, bias=True)
      (3): ReLU()
      (4): Linear(in_features=512, out_features=256, bias=True)
      (5): ReLU()
      (6): Linear(in_features=256, out_features=128, bias=True)
      (7): ReLU()
      (8): Linear(in_features=128, out_features=1, bias=True)
    )
    (qf1): Sequential(
      (0): Linear(in_features=41, out_features=1024, bias=True)
      (1): ReLU()
      (2): Linear(in_features=1024, out_features=512, bias=True)
      (3): ReLU()
      (4): Linear(in_features=512, out_features=256, bias=True)
      (5): ReLU()
      (6): Linear(in_features=256, out_features=128, bias=True)
      (7): ReLU()
      (8): Linear(in_features=128, out_features=1, bias=True)
    )
  )
  (critic_target): ContinuousCritic(
    (features_extractor): FlattenExtractor(
      (flatten): Flatten(start_dim=1, end_dim=-1)
    )
    (qf0): Sequential(
      (0): Linear(in_features=41, out_features=1024, bias=True)
      (1): ReLU()
      (2): Linear(in_features=1024, out_features=512, bias=True)
      (3): ReLU()
      (4): Linear(in_features=512, out_features=256, bias=True)
      (5): ReLU()
      (6): Linear(in_features=256, out_features=128, bias=True)
      (7): ReLU()
      (8): Linear(in_features=128, out_features=1, bias=True)
    )
    (qf1): Sequential(
      (0): Linear(in_features=41, out_features=1024, bias=True)
      (1): ReLU()
      (2): Linear(in_features=1024, out_features=512, bias=True)
      (3): ReLU()
      (4): Linear(in_features=512, out_features=256, bias=True)
      (5): ReLU()
      (6): Linear(in_features=256, out_features=128, bias=True)
      (7): ReLU()
      (8): Linear(in_features=128, out_features=1, bias=True)
    )
  )
)
2024-03-16 20:38:23,185 :: root :: INFO     :: SB3 Algorithm Policy saved at: work_dir/track-test/checkpoint/checkpoint.zip
2024-03-16 20:39:33,810 :: root :: INFO     :: Environment data saved to work_dir/track-test/checkpoint/env_data.bin
2024-03-16 20:39:34,180 :: root :: INFO     :: scenario #0
2024-03-16 20:39:34,243 :: root :: INFO     :: scenario #1
…
